initial_model.pt (torch, 250508 bytes, 10 tensors)

conv1.weight f4 [6, 1, 5, 5]
00000000: 15dc 463e ae4b 2e3e 2688 c03d d175 fa3d
00000010: f477 b3bc 446b 04be da94 15bd 7b3d 1fbe
00000020: d1e4 dc3d 1b10 d1bc aeee 953c 38d8 343e
00000030: e1b2 0ebe f02f 21be 7e29 453e 57b9 293e
00000040: 5671 423e 04a5 ebbd ace8 163d c010 95bd
00000050: 0981 f83d 6e11 3b3e eba1 843c 54b5 1dbe
00000060: c754 42be 0e03 87bd 7fe0 85bd 88de 3b3e
00000070: 7477 24be 6276 51bc 196b f73c 4904 21bd
00000080: 8a7c c43d 9ff7 2d3e 3a5b 9bbd a54d 81bd
00000090: 3604 0cbd 5b7e b7bd eeee b43c 3852 ff3c
000000a0: 50dd bd3d 5b08 e63d d069 f03d 2990 fe3d
000000b0: 4699 af3d 0c6a 293e 1636 f8bd 796e de3d
000000c0: f9f7 963c 1194 373e 3e3b 943d a2bd 9e3d
000000d0: 4b16 3e3e 3faa 19be 1243 0e3d dcf5 843c
000000e0: a77e 933d d3aa f73d 306c cf3c 4f42 e03d
000000f0: 1b7d 8cbc 0d77 bb3d b074 38be a5be 33be
00000100: 061b 08be bf74 bf3c e27b a13d 0478 96bb
00000110: 46c9 44be 52a4 3f3e 1229 8e3d 277b 8c3d
00000120: ec28 ee3d acf3 483e 7de8 46be d356 36be
00000130: 748b d73c 7c37 42be 002d a93d 73b0 be3c
00000140: 3270 b8bc 5b4a 06be bdd6 32be 471b ee3d
00000150: 99d5 05be 173c 3f3e 4b6b 50bd 1795 ae3d
00000160: 80a8 c13c 76a2 863d 7771 09be 3843 44be
00000170: 071c 2fbe 74fa 12bb 9668 f23d 3c3f 053e
00000180: 51db a43d 99d2 d3bb 40f0 2fbe fd20 0a3d
00000190: a83e 34bc b0c8 3fbe 9b87 08be c26e 9c3d
000001a0: 475c e03d eef0 9dbd 824a 603c 8e83 fcbd
000001b0: 6cbf d7bc 0ec1 fe3c d3e1 393d 1acf 1c3e
000001c0: 8c45 0c3e 7dce 1c3e b1b2 4c3d f379 013e
000001d0: 839b 033d 1b91 09be 2e4f 823d af0b 2e3b
000001e0: e413 153e 6fcb 413e db8f 82bd d9f4 0c3d
000001f0: f7fc 0a3e 246b 0ebc ad70 bf3b 4fea 18be
00000200: b5ec eb3d 9cda eaba ed97 cc3d 5d50 463e
00000210: dd21 d03b 2ddb b93d 7989 8c3d f776 fabd
00000220: d9e3 c03d 7a6b de3d 0a0f 44bd a496 0bbe
00000230: d6e7 30be a4a0 05be 4335 403e 10fb dcbd
00000240: 61c4 3d3e b144 12be a85a d23d 4a38 19be
00000250: 5a66 e6bd 8613 3d3d
0.19419892 0.17021057 0.09400968 0.12229503 -0.021907784 -0.12931544 -0.03651891 -0.15550797
0.10785831 -0.025520375 0.018302288 0.17660606 -0.13935424 -0.15740943 0.1925411 0.16574608
0.18988547 -0.115060836 0.036842987 -0.072785854 0.121339865 0.18268368 0.01619049 -0.15401202
-0.18977652 -0.065923795 -0.0653696 0.18346608 -0.16061193 -0.012784572 0.030202435 -0.039310727
0.095940664 0.16988991 -0.075857595 -0.06313638 -0.034183703 -0.08959647 0.022086587 0.031167135
0.09270728 0.112320624 0.11738932 0.1242984 0.085741565 0.1654436 -0.12119691 0.10860915
0.01842879 0.17927577 0.07237862 0.07751013 0.18563192 -0.1500635 0.034731932 0.016230516
0.072018914 0.12093129 0.025320143 0.10950147 -0.017149499 0.091535665 -0.18013263 -0.17553194
-0.13291559 0.023371099 0.07884957 -0.0045919437 -0.19217405 0.18715027 0.06941427 0.06859427
0.11628899 0.19624203 -0.19424625 -0.17806558 0.026311614 -0.18966478 0.08260536 0.023277497
-0.022514436 -0.13114302 -0.17464729 0.116262965 -0.13069762 0.18675266 -0.050883573 0.085245304
0.023639917 0.06573956 -0.1342219 -0.19166267 -0.17100535 -0.0022427114 0.118363544 0.13012403
0.08049644 -0.006464314 -0.17181492 0.033722866 -0.011001267 -0.187289 -0.1333298 0.07638313
0.109551005 -0.07711969 0.013689639 -0.123297796 -0.026336394 0.031097915 0.04538138 0.15313378
0.13698405 0.15313144 0.0499751 0.12644176 0.03213073 -0.1343426 0.063627586 0.0026557257
0.14558369 0.1892526 -0.063750945 0.034413192 0.13573061 -0.0086925365 0.0058422894 -0.14933132
0.11519758 -0.0017917934 0.09989915 0.19366594 0.006351693 0.090750076 0.06862158 -0.12229722
0.094184585 0.10860343 -0.047865905 -0.13631684 -0.17275938 -0.13049561 0.18770318 -0.10790074
0.18531944 -0.14284016 0.102711976 -0.14962879 -0.11249991 0.046161197

conv1.bias f4 [6]
00000000: 615e bdbd cfde e83d e72b 113e d307 e13b
00000010: 0477 1e3d 5a42 7a3c
-0.09246517 0.11370622 0.14176904 0.006867388 0.03868772 0.0152746085

conv2.weight f4 [16, 6, 5, 5]
00000000: 9634 ccbc c6f9 25bd ac21 6c3d b0db 81bc
00000010: 4df6 013d 0f17 a1bb fb09 d538 c040 93bd
00000020: 810a e3bc 53bc 9abd cd46 dc3c 18b9 2d3d
00000030: 260b 213d 5fef bf3a 50c2 213d 65a7 5a3d
00000040: 4fe7 583d 4ef9 26bd e9d6 643d bd0d 89bb
00000050: 906a 63bd bc06 debc 6f71 e5bc 6bd4 843d
00000060: f8a4 623d a679 793d 4c23 ebbc c682 193a
00000070: dec4 143c 8f04 a63d 4037 2eb8 de2b 413d
00000080: 57b5 e4bc c6ba 7f3d 0ecb 79bb c067 943d
00000090: 125e 17bd f85a 7c3d 6d99 b23c a94d 4dbc
000000a0: c7ca 7f3c 6a73 5bbd e580 173d 8d0a 93bd
000000b0: 013a bcb9 eb2e a63d 149e a0b9 ce43 6a3d
000000c0: f182 3c3d cad8 503d aba9 033d d227 91bd
000000d0: 56ba 783d 909c 443d 6b45 25bd c2ec 4b3d
000000e0: 5bce df3c 9ea5 86bd 9fb5 913d a257 9f3d
000000f0: dca7 24bd b145 853d 1b52 05bd 7f32 523c
00000100: 0be8 7a3d a440 843d 10b9 bcbc d5bd 3dbd
00000110: 25a9 723d a3aa 903d bf86 c63b 51f6 5dbd
00000120: dc16 83bc 91b9 6b3d a124 943d 754b 323d
00000130: da1d 9c3d 31af 9e3d b44e 1d3d 1753 20bd
00000140: 0f1b 9ebc 8c37 4c3d 9c15 2a3c 8d9f ebba
00000150: c5e3 6c3d ebb0 753d cdc8 683d 1036 2b3d
00000160: 99ba 47bd 69cb 9b3d 229a b23c ccf3 d8bb
00000170: ef3c 33bd 814e 4cbc 3647 70bd d1e8 84bd
00000180: 7fd6 fcbc b24b 773b 2fa7 833b dd4d 533c
00000190: 0519 5c3b aaa9 51bc 0998 f43b 39c2 673d
000001a0: ca8e 7cbd 89a1 473a 2eb5 bcbc aa3e e2bc
000001b0: 421d 0c3d 5529 0abd 6301 87bc 3710 393c
000001c0: 63b0 87bc a907 60bd 5381 3e3c da7a ad3b
000001d0: 3f81 79bd cf13 303d ab05 babc ba7f 90bd
000001e0: 60cd 1cbd 33c5 1bbc a09c ba3c 069b 25bd
000001f0: 7796 983d b550 bd3c 34bb 33bd 84cf 0dbb
00000200: ff04 843d 359f fe3c 2bd1 9cbd 395c daba
00000210: b488 ab3b 5a3a 9abd 35af 943d 7291 8b3d
00000220: d32b 1b3d 6131 943d eff8 83bc 20c7 803d
00000230: 743d cbbc 69ff 3c3d 7046 8d3d d116 403d
00000240: 8e31 523d 2d3b 163d 16d2 963d 7094 313c
00000250: 5e18 f3bb a27d a3bd 0f68 333d a08d 553d
00000260: f455 963d ec3f 3bbc 38ef 68bb 0ef2 5a3d
00000270: dea3 17bd f2f6 8cbd a046 efbc 6647 36bd
00000280: bbdc 13bd 4a44 3e3d baa2 943d b4eb 433d
00000290: 9aab 3abd 0eec 333c a2db dcbb e970 e83b
000002a0: 1928 303d 8551 9b3d f295 61bd 2c30 623d
000002b0: 3d1f e23b c5b5 823b 4039 103d 3e35 9abd
000002c0: 10eb 92bd ed53 85bd 4e38 18bc 1f03 923d
000002d0: b90d 65bd 952a 11bd 9d3a aabc 6075 933d
000002e0: b94b 8cbd f207 30bd 518c 47bc cf9b 963d
000002f0: 5be0 973d 7496 5abd e933 013c a855 a5bd
00000300: 4880 103d 83d1 c73a 9200 103d 49be 05bc
00000310: 6302 993c 2c3e df3c eb32 68bd f982 40bd
00000320: aa30 34bc bf4c 42bd 8f50 143d f12d 4e3d
00000330: 97ef a53d 1782 803d f045 8ebd 5bcb a4bd
00000340: 5065 973d 9d80 4fbb f86a 583d 17e3 3ebc
00000350: 5c5c 4e3c 1875 82bd dc66 68bd e71b 703d
00000360: d898 993d 3c06 9e3d 59d8 f63c fce5 06bd
00000370: de77 bfbc fb65 df3c 262c 8cb9 f2a2 c93c
00000380: 8bda 443c e162 303d f215 79bd 0f11 fd3c
00000390: 6bb8 8b3d e9d4 ccbc 2d5b 55bd 0125 5d3d
000003a0: a921 a43d dd2e 37ba 7bf2 f438 0eb2 8b3d
000003b0: 7193 223d adea abbc cd31 c33c 4328 c3bb
000003c0: 6275 57bd 3372 31bc c1e1 733d 4d4a 36bd
000003d0: 41f0 11bd a8ce 4d3c 2915 90bc e7fd 77bc
000003e0: 71ee 84bc f96a 30bc 3d79 3a3d 3433 89bd
000003f0: 0cb1 67bd 5a28 ac3b 0cb0 623d 7576 a43c
-0.024927419 -0.040521406 0.0576493 -0.015851825 0.03172903 -0.004916079 0.000101584905 -0.071900845
-0.02771497 -0.07555451 0.02688923 0.042412847 0.039317273 0.0014643482 0.03949195 0.053382296
0.052954968 -0.0407651 0.055869017 -0.004182546 -0.055521548 -0.02710282 -0.02800819 0.06485828
0.055333108 0.06090703 -0.028703354 0.00058559736 0.00908014 0.08106338 -4.153629e-05 0.047160976
-0.0279185 0.06243398 -0.0038115415 0.07246351 -0.036954947 0.061610192 0.021801675 -0.012530723
0.015612311 -0.053576864 0.036988158 -0.07179747 -0.0003590137 0.08114418 -0.00030635356 0.05719357
0.046023313 0.050987996 0.03214423 -0.07087673 0.06072458 0.048000872 -0.040349405 0.049786337
0.027320078 -0.06574558 0.071147196 0.077803865 -0.040199146 0.06507433 -0.032549005 0.012829422
0.06125645 0.06457642 -0.023037463 -0.046323616 0.05924334 0.07063796 0.0060585435 -0.054189984
-0.016002111 0.057550017 0.07233549 0.043528993 0.07622881 0.07748259 0.038405135 -0.03914174
-0.019300012 0.04985766 0.010381129 -0.0017976627 0.057834405 0.059983175 0.056832124 0.041799605
-0.048761938 0.07607157 0.021802012 -0.0066208597 -0.043759283 -0.012469889 -0.058661662 -0.06489719
-0.030863998 0.0037734327 0.0040177326 0.012896982 0.0033584249 -0.012796799 0.007464413 0.05658171
-0.06165961 0.0007615318 -0.023035612 -0.027617771 0.03420759 -0.033730824 -0.016480153 0.01129537
-0.0165636 -0.054694805 0.011627513 0.005294186 -0.060914274 0.04298764 -0.02270778 -0.07055612
-0.0382818 -0.009507465 0.022779763 -0.040431045 0.07450574 0.023109773 -0.043879703 -0.0021638582
0.064462654 0.031081775 -0.07657083 -0.0016659565 0.005234802 -0.07530661 0.072599806 0.06814851
0.03788359 0.07235981 -0.016109912 0.0628798 -0.024809577 0.046142016 0.068982005 0.04689676
0.05131679 0.03667753 0.073642895 0.010838613 -0.0074186763 -0.07982947 0.04380041 0.052137017
0.07340613 -0.011428814 -0.0035542976 0.053453498 -0.03702151 -0.068830386 -0.029208481 -0.044501685
-0.036099177 0.046451844 0.072576 0.047832206 -0.04557381 0.010981573 -0.0067400495 0.007093538
0.04300699 0.07583908 -0.05507464 0.05522172 0.0069006965 0.003988954 0.035210848 -0.075296864
-0.07173741 -0.06510148 -0.009290768 0.071295016 -0.05592129 -0.035441 -0.020779902 0.07200122
-0.068503805 -0.042976327 -0.01217945 0.07353937 0.07415839 -0.05336614 0.0078859115 -0.08072978
0.03527859 0.0015244934 0.035156794 -0.008163043 0.018677896 0.027251326 -0.056689184 -0.046999905
-0.010997931 -0.047436472 0.03620964 0.050336782 0.08102339 0.06274813 -0.06946933 -0.080465995
0.07392371 -0.0031662353 0.05283639 -0.011650822 0.012595262 -0.0636999 -0.05673872 0.05862036
0.07499856 0.07716033 0.03013246 -0.032934174 -0.023372587 0.027270308 -0.00026735774 0.024613831
0.012014995 0.04306305 -0.060811944 0.030891923 0.06822284 -0.025003867 -0.052088905 0.053990368
0.08014233 -0.0006987879 0.00011679992 0.068210706 0.039691392 -0.020985926 0.023827458 -0.0059557273
-0.05260218 -0.01083045 0.059541468 -0.044504452 -0.035629515 0.012561478 -0.017588215 -0.015136219
-0.016226979 -0.010767692 0.045525778 -0.06699219 -0.05656533 0.0052538337 0.055343673 0.020076016

conv2.bias f4 [16]
00000000: c8ed 553d 3fb3 683d b324 913c a6e6 643d
00000010: 6a24 a13d 9a2d 9fbc 1100 de3c df04 543d
00000020: 9694 103d d8dd 80bc 6e13 a3bd 6427 9c3d
00000030: 563b 7bbc ed57 a83c d82d 12bc c480 663d
0.05222872 0.056811567 0.017717695 0.055884026 0.078682736 -0.019430924 0.027099641 0.051762458
0.035297953 -0.015730783 -0.0796269 0.07624701 -0.015333971 0.020549739 -0.008922063 0.056275144

fc1.weight f4 [120, 400]
00000000: c0db 07bd 5e80 a93c 2ef3 cb3c e622 10bd
00000010: c715 3bbd 929d 8d3c 60f1 1e3c 5e62 11bd
00000020: fc62 5e3c fba8 33bd b092 66bb 106d a73b
00000030: 98b5 c5bb b4ef 32bc 00c2 493a 0b7b 393d
00000040: c088 91bb dd4e babc acae 243c 00db d7bb
00000050: d2eb 3bbd a83f 18bc 98a5 a43b bd40 b9bc
00000060: 69dd 373d 93a7 adbc 00aa ea3b c803 00bd
00000070: 8288 c83c 347b 723c e41e 00bd 42ed a43c
00000080: 1361 b9bc 7839 67bc f2dd e93c 7ad6 883c
00000090: 286f 4bbc 5da3 123d 9d27 ffbc 6cd1 04bc
000000a0: 606e e23a d232 1fbd 2089 233b 7e8e a03c
000000b0: 5070 d63b bbbd 31bd 0395 47bd 306f 1ebb
000000c0: 7ae5 a0bc 4eaf 1abd b64b 26bd 8265 f63c
000000d0: 13d0 dbbc 2c11 5f3c 9555 1cbd 6a37 d43c
000000e0: c7cd 393d 5211 37bd b0b9 b4bb 474b 393d
000000f0: 9759 a9bc 8c88 073c 473e 153d 4041 13ba
00000100: f5e1 18bd 7030 3abd 0f8c 46bd 20a2 87bc
00000110: 3ef5 9b3c a039 c5ba b65e 1cbd 1b29 283d
00000120: 88bb 1bbc ea5b f53c da96 24bd 6026 52bc
00000130: 3023 853b 0021 9f39 2772 fdbc e1ee 453d
00000140: 8c34 8dbc 60f8 91ba 22ef e03c abe8 11bd
00000150: a3e7 ecbc 8c63 19bc bdf3 18bd 0333 27bd
00000160: b085 7e3b 9212 01bd ec72 5bbc 1831 82bb
00000170: 0000 22b7 2269 b33c 8713 44bd 411b 073d
00000180: aa69 943c a266 ed3c 0025 c8ba ac13 1b3c
00000190: 1afd b3bc 7ce2 573c f5c4 3c3d a0d0 a2ba
000001a0: 4084 ed3a cf4a 3c3d 2f7f 433d 282c 3f3c
000001b0: d24d d53c 6a47 80bc d9a9 333d b0e4 bc3b
000001c0: 0b48 323d 68c7 d93b 0015 95bc ce39 e83c
000001d0: 03e9 d1bc b828 30bc 0b4c 013d 42b9 d73c
000001e0: aab7 efbc 497b 383d 0055 003c d907 3f3d
000001f0: da6b 853c 008a 1cbc 4416 87bc 866b d53c
00000200: e77f eabc 2290 a83c 8c85 053c f8bd 4fbc
00000210: 5c14 86bc 01a2 203d 50aa dfbc 3af0 8f3c
00000220: 39e6 3a3d c87b 21bc 7d85 073d 184c d1bb
00000230: 3b0b 2bbd e8d6 b0bb 64e5 6b3c 6d4a 313d
00000240: 4b8b 0a3d 1217 a23c cb5a 243d 08f1 2dbc
00000250: fa5d 23bd 2655 e83c 96c3 9d3c 92e4 9e3c
00000260: e276 a53c 8de8 febc 60e5 30bd 6371 47bd
00000270: b0a3 433b 40ed b4ba ec7f 76bc d907 0c3d
00000280: 147f 4d3c 0adc a4bc f257 e03c e80f 84bb
00000290: 6051 c6bc e85f c9bb d830 21bd d2eb ac3c
000002a0: 1864 2abd 6f16 003d c0dd 94bc df82 223d
000002b0: 9247 f03c 8d18 e7bc 6ca1 2abc 1915 203d
000002c0: b5b2 483d 43c0 ffbc 0aef 1ebd 350e 42bd
000002d0: 5404 1f3c 1df4 4bbd 28fb d7bb ede0 203d
000002e0: 339c 1f3d e921 083d 7174 3c3d 34e7 73bc
000002f0: b3fd 21bd 9299 9b3c 9abd d9bc a7a5 f3bc
00000300: e7e9 b5bc 44f1 4c3c 3ed0 e23c b782 113d
00000310: 3f8c 37bd 18a6 eabb 0c73 7a3c b304 f3bc
00000320: a898 04bc 5619 2abd be25 da3c df5d 46bd
00000330: 0870 33bc 9931 0d3d a7ed 1c3d 55c3 1a3d
00000340: d7bd 123d 4e4d 8b3c 41e7 383d 2b20 43bd
00000350: 52c3 a73c 3284 27bd eb72 0c3d c761 34bd
00000360: 60d2 1cbb baa0 c33c 307b fcbb c0ae d1bc
00000370: 0cc0 7a3c 5319 393d 256c 15bd 5b83 043d
00000380: 2064 69bc a9c1 043d a003 cfbc 56f6 bc3c
00000390: 4045 72ba 0435 5f3c c316 463d bfb3 0d3d
000003a0: 7244 c83c 6069 fabc 6eda 8e3c 92f4 9a3c
000003b0: 87b3 e9bc 0059 1abb 6a40 48bd 48f1 1bbd
000003c0: 5e00 b43c 16e3 c03c 07e7 e4bc 96ad 24bd
000003d0: 9508 0cbd a6d0 b83c 904b b6bb a056 2e3c
000003e0: 4d24 36bd fcd1 02bd b6e8 b83c 28db c13b
000003f0: 8e0c e73c 1863 46bd 62fc da3c 6060 19bd
-0.033168554 0.020691093 0.02489623 -0.03518953 -0.045675065 0.01728705 0.009701103 -0.0354942
0.013573404 -0.043862324 -0.0035182647 0.005109437 -0.0060336106 -0.0109214075 0.000769645 0.04528336
-0.0044413507 -0.022742683 0.010051411 -0.006587386 -0.045879193 -0.009292521 0.005024623 -0.022613877
0.044888888 -0.02119807 0.007161379 -0.031253606 0.024479154 0.014799882 -0.03127946 0.020132665
-0.022629296 -0.014112823 0.028548215 0.016703833 -0.012416638 0.035800327 -0.031146819 -0.008106571
0.0017275326 -0.038866825 0.002495356 0.019599196 0.0065441504 -0.04339383 -0.048726093 -0.002417516
-0.019640673 -0.03776484 -0.040599547 0.0300777 -0.026832616 0.013614934 -0.038167555 0.02590533
0.04536226 -0.044694252 -0.0055152997 0.045237806 -0.020672603 0.008272301 0.036436345 -0.0005617328
-0.037324864 -0.04545635 -0.048473414 -0.0165568 0.019037839 -0.0015047081 -0.03817626 0.041054826
-0.00950516 0.029951055 -0.040182926 -0.012826532 0.0040630326 0.0003035143 -0.030938221 0.048323516
-0.01723697 -0.0011136644 0.027457777 -0.03562228 -0.028919047 -0.009362113 -0.037341822 -0.040820133
0.0038837008 -0.03151185 -0.013394099 -0.0039731376 -9.655952e-06 0.021900717 -0.047870185 0.032984976
0.01811679 0.028979603 -0.0015269816 0.009465139 -0.021971274 0.013176557 0.04608627 -0.0012421794
0.0018121079 0.04596978 0.047728714 0.0116682425 0.026038084 -0.015659053 0.04386315 0.0057645664
0.043525737 0.0066460855 -0.01819849 0.028347876 -0.025623804 -0.010751896 0.03156666 0.026333455
-0.029262383 0.04503945 0.007832766 0.046638343 0.01628678 -0.009554386 -0.01649011 0.026052248
-0.028625442 0.02057654 0.008149516 -0.012679569 -0.01636713 0.039217 -0.027302891 0.017570604
0.045629714 -0.009856172 0.03308629 -0.006387245 -0.041758757 -0.0053967126 0.014397953 0.04328387
0.033824246 0.019786391 0.04012565 -0.010616548 -0.039884545 0.028360914 0.019258302 0.0193961
0.02019829 -0.031116748 -0.0431875 -0.04869212 0.0029852204 -0.0013803616 -0.015045147 0.03418717
0.012542505 -0.020124454 0.027385686 -0.0040302165 -0.024208724 -0.006145466 -0.03935322 0.021108542
-0.041599363 0.031271394 -0.018172145 0.03967559 0.029331002 -0.028209949 -0.010414463 0.03908262
0.048998553 -0.031219607 -0.038802184 -0.04737683 0.009705622 -0.04979335 -0.0065912195 0.039277006
0.038967323 0.033235464 0.046009485 -0.014886666 -0.039548587 0.018994126 -0.026579667 -0.029742075
-0.02220626 0.012508694 0.027687188 0.03552505 -0.044811483 -0.007160913 0.015286218 -0.029665327
-0.008093037 -0.04152807 0.026629325 -0.048429366 -0.010952003 0.034471128 0.03831258 0.03778394
0.035825577 0.017004635 0.045142416 -0.0476381 0.020478878 -0.040897556 0.03428928 -0.04403856
-0.0023929104 0.023880351 -0.007705115 -0.025596023 0.015304577 0.045190167 -0.036480088 0.032351833
-0.014245063 0.03241125 -0.025270283 0.02306668 -0.00092418864 0.01362348 0.04836155 0.034595247
0.0244467 -0.030567825 0.01743814 0.018915448 -0.028527988 -0.0023551583 -0.048889555 -0.0380719
0.021972831 0.023545783 -0.027942194 -0.040204607 -0.034187872 0.022560429 -0.005563207 0.01064077
-0.044468213 -0.031938538 0.022571903 0.005916018 0.028204229 -0.048434347 0.026731674 -0.037445426

fc1.bias f4 [120]
00000000: a883 21bd a62e a93c 0701 a0bc 2513 0e39
00000010: 7e37 5bbc 7443 ae3c f118 0b3d 34d5 f8bc
00000020: a23c d0ba f9e8 443d 2afd 4abd e694 9b3c
00000030: 4119 99bb ed21 b2bc 7ac6 403c 4278 083b
00000040: 493d 083d 8373 743b c4ac 82bc 4fd0 913c
00000050: 29fb ffbc 0b67 e03c 5511 fd3c 1b2d 1d3d
00000060: 9d6a e9bc 4cb7 26bc 2b7c 34bd 46ee 01bd
00000070: cd24 b0bc 5822 d8b9 62e0 26bd 12c0 953c
00000080: ca6e 89bc f4ec 2abd f78d 473d 6c4d fe3c
00000090: ec79 0ebc ce42 6e3b 7cc3 81bc 4608 373d
000000a0: 4a09 12bd 8be5 39bd c040 fc3b e2c3 213d
000000b0: 5ba4 853c a330 bc3c 945e 4abd 4124 703c
000000c0: 97fb 1d3d 2c81 12bc 315c 1c3d bb96 183d
000000d0: c853 5cbc f2d4 5c3b dd0e 023d 1b26 9bbc
000000e0: b094 78bb a1dc 3d3d f5aa 4b3c 4a11 013c
000000f0: 5e39 843c b9a8 493d 506e 9c3c c060 de3a
00000100: 9d4c a8bc 60b9 d6ba 038a 1b3d 43f5 9ebc
00000110: 638d 2ebd 3986 263d f9d5 6fb9 408c 2abd
00000120: 3b3b 3cbd e0d2 9bba e159 1e3d 6098 83bb
00000130: c019 4ebc d80d 773c c0cf e3bb 8975 563c
00000140: 66e1 4e3c 6000 6d3b 3790 9abc b7cd 7a3c
00000150: c42b a03c 398e 333d 9a93 073d 07bd cdbc
00000160: af71 bebc 9ba1 483d 87b1 adbc e0d1 97bc
00000170: 0309 3f3c 3b8e 87bc 54b3 38bd 5d23 9c3c
00000180: fe4d 9f3c a171 90bc 4e03 483c f443 343c
00000190: bd74 433d 58ad 3e3c c9f3 ac3c fd38 143d
000001a0: a9fb 153d 3ac8 25bb e4f5 3bbd 130c 073d
000001b0: 0072 4e3a d17e 173d e92a 493c 63d5 2fbc
000001c0: d402 493c cf80 d03c 2483 3d3d eca7 7abb
000001d0: bc36 a9bb 3006 eebb 55a2 073c 10dc c83c
-0.039432198 0.020652127 -0.01953174 0.00013549307 -0.01337993 0.021272399 0.033959333 -0.0303751
-0.0015887211 0.048073743 -0.049557842 0.018991899 -0.0046722 -0.021744693 0.0117660705 0.0020823632
0.03326157 0.0037300296 -0.015951522 0.017799525 -0.031247692 0.027392885 0.030892054 0.038373094
-0.02849322 -0.010175537 -0.04406373 -0.031721376 -0.021501923 -0.0004122432 -0.040741332 0.018280063
-0.016776461 -0.041729882 0.048719373 0.031042777 -0.008696061 0.0036355737 -0.015840285 0.044685625
-0.03565339 -0.045384925 0.0076981485 0.03949345 0.016313722 0.02297241 -0.049406603 0.014657081
0.038570013 -0.00894193 0.038173858 0.037253123 -0.013447709 0.0033696261 0.031752456 -0.018939069
-0.0037930422 0.046352986 0.012430896 0.007877657 0.016140636 0.049233172 0.01909557 0.001696609
-0.020544345 -0.001638215 0.037973415 -0.01940406 -0.042615306 0.04065535 -0.00022872527 -0.04163766
-0.045954924 -0.0011888407 0.038659934 -0.0040159672 -0.0125793815 0.015078984 -0.006952256 0.013089546
0.012626981 0.0036163554 -0.018867595 0.015307835 0.01955212 0.043836806 0.03309975 -0.02511455
-0.023247568 0.048982244 -0.021202816 -0.018532693 0.011659863 -0.016547313 -0.045092896 0.019059831
0.01944637 -0.017632307 0.012207819 0.011002529 0.047718752 0.011638008 0.02111234 0.03618716
0.036616955 -0.0025296346 -0.045888796 0.0329705 0.00078752637 0.036986176 0.012278297 -0.010732028
0.012268741 0.025452046 0.046267644 -0.0038247062 -0.0051639955 -0.007263921 0.008278449 0.024518996

fc2.weight f4 [84, 120]
00000000: c0a4 f23c a436 3cbd 7866 693c e2e2 70bd
00000010: 565f f2bc cbf4 05bd d0c4 b23d a55c 43bd
00000020: 346a 1ebd 4081 9f3b e33e 523d 5c1f 2abd
00000030: 5459 913d f1ba a63c 8321 babd eddb 2b3d
00000040: efd7 3a3c 5cb3 2ebd 0bda 00bd 0070 0a38
00000050: 181f 263c 9db9 a63d 0efb 66bd c734 9dbd
00000060: ba34 95bd 4cfa dcbc cc2c 02bd 7c5d 673d
00000070: 95f3 99bd 89ef 4dbd 1a94 acbd ae24 44bd
00000080: 403d 443d 348f 1e3d ccb7 57bd ce2a c73c
00000090: e0b3 2fbb ef7a b4bd d8bf ce3c f704 88bd
000000a0: 0cb2 b93d ce2e a8bd c021 bfbc 386c 523d
000000b0: 6908 ee3c d155 06bd afb0 f33b b7b6 8d3d
000000c0: 6eb7 79bd ca8e afbc 2d3a b63d a4d3 ec3c
000000d0: d873 0f3d 51da 8cbd 588a 87bd db53 303d
000000e0: ba3b 54bd da74 20bd ce17 603d cfca 513d
000000f0: a0bd 5d3d a1f0 e6bc cebe 8abd fed5 a13d
00000100: 5ce8 bfbc a604 813d 10ac 803c 14bd ca3c
00000110: a423 9dbd 677a 503c b497 27bc 382a ad3c
00000120: 6b04 87bd 947e a5bd feba aebd 9f5b 8dbc
00000130: 68b9 5bbc bc76 663d 14f8 9f3d a286 3f3d
00000140: 26a3 2b3d d0d7 843d b4fd 5cbd 21d0 8dbd
00000150: e1ba 75bd ca21 3f3d 71a6 533d f856 fa3c
00000160: f018 19bd 1c5f 9eba acb7 a43b 885d 333d
00000170: 76a7 943d 6a83 793d bf06 9fbd 7629 8f3d
00000180: 54e1 99bc fde6 843d 6871 173d 455a 93bd
00000190: 7041 c23b ca53 8dbd b5fb 6a3d f70e cbbc
000001a0: 35e9 6f3d e5ff 663d fc67 b23c e43d f9bc
000001b0: 58af c2bc 32f4 ab3d cdc1 e23c a94b b9bd
000001c0: b895 463d c165 83bb ccb8 c5bc 002c cc3b
000001d0: c01d 9c3d 0b55 553a ac2c 4d3d 2575 5c3d
000001e0: 507b 59bd e727 2f3d 2a2a 8cbd a614 92bd
000001f0: 8b1d f33b 5e58 333c bc80 a6bd 4aa6 0abd
00000200: 206d bd3b 435d 36bc a2a9 8abd 0f0b b8bd
00000210: 1df4 12bd 1002 843d 25d1 aabd 441b 573d
00000220: a44c 5d3c 5c19 2a3d 411a 87bd 7523 383d
00000230: 3e9c e3bc 005a 94bd 9263 013b 2036 0cbb
00000240: 4847 923d 0d72 97bd 283f a13d 189b 9fbc
00000250: 72dc a03c 3930 c7bc 20a5 e43c a405 d63c
00000260: f649 b23d 84aa 19bd f31e a1bd e9e7 533d
00000270: 2717 3ebd e813 093d b213 94bd b2e4 37bc
00000280: 7444 873c 784c afbd dc7b 963d a7ab 8ebd
00000290: 84d2 9dbd 9efe aabc 801b 85bd e0c4 00bc
000002a0: 4a38 e03a deaa a0bc f5bb b4bd 2a36 513d
000002b0: b0cb ab3d c413 593d 25bf b43d 28b8 283d
000002c0: 0043 efba 3039 513d 071e a8bd b14a 253c
000002d0: 6cc0 3e3d b321 573d 02a4 a03d 475a a6bd
000002e0: 2882 00bd 60a7 a7bb 9c67 ddbc 194d a33d
000002f0: f295 553c 5c29 79bc c191 ae3d d05f 663d
00000300: 38ea 29bc 68e3 b8bd 0f9d 8dbd b6cf 2dbd
00000310: 3c46 893d c79c babd 8b62 50bd f441 08bc
00000320: 2e45 573d 5822 923c 4021 d4bb 7525 57bb
00000330: 481e b93d 63ca babb cef6 9b3d d1ca 14bd
00000340: 2320 983d b23d 5a3d 97f7 753d c672 a63d
00000350: 3ea1 cebc 58b3 4d3d ee0f 213a 8f63 8abd
00000360: f84f 69bd 3bef 3cbb 38c5 e8bc 4b0b 88bd
00000370: 0014 3b39 8081 833a 61af 21bc 0a64 72bc
00000380: f5fa 9e3d c6f2 b1bd cf68 48bd 8825 523d
00000390: 9555 b93c 1ce0 7abd 8a4a 263d 50b5 a2bd
000003a0: 08ed 0f3d 0e64 0a3d fb7f ecbc acfa 5c3d
000003b0: ffbd fbbc 2791 aebc e256 0abc 0a5e b5bc
000003c0: 60b0 4cbd 8244 9dbd 50d2 033d 1bbc 6bbd
000003d0: 483b 763d 0ad9 edbc ec4c 0c3d 40c5 783d
000003e0: caeb 6ebd 6468 143d 2fbd 87bd ce8d ffbc
000003f0: bcef b0bc 9c96 efbc f21c 88bd 8023 643b
0.029619575 -0.045950547 0.014245622 -0.058810122 -0.029586475 -0.032704156 0.08728945 -0.047695775
-0.038675502 0.0048677027 0.051329505 -0.041533813 0.07097116 0.020352812 -0.09088423 0.041957784
0.011404022 -0.04265152 -0.031457942 3.3006072e-05 0.010139249 0.08140872 -0.05639177 -0.07676082
-0.072854474 -0.02697482 -0.031781003 0.056485638 -0.07517163 -0.050277267 -0.08426686 -0.047886543
0.047909975 0.038710788 -0.052665517 0.024312403 -0.0026810095 -0.0881251 0.025237963 -0.06641572
0.09067163 -0.08212052 -0.023331523 0.051372737 0.029056745 -0.032796685 0.007436834 0.06919616
-0.060965948 -0.021430392 0.08897815 0.028909512 0.035022587 -0.06877578 -0.06618184 0.04304872
-0.051814772 -0.03917394 0.054710202 0.051218804 0.05413592 -0.028190913 -0.06774674 0.07902144
-0.023426227 0.06299715 0.015707046 0.024748363 -0.076728135 0.0127244955 -0.01022904 0.021138296
-0.065926395 -0.080807835 -0.0853176 -0.017255602 -0.0134109035 0.056265578 0.07810989 0.046759255
0.041903637 0.064864755 -0.053952888 -0.06924463 -0.059992675 0.046663083 0.051672403 0.030559048
-0.037377298 -0.0012082788 0.005026778 0.04379037 0.07258503 0.06091634 -0.077649586 0.0699033
-0.018784203 0.0648937 0.036973387 -0.07194952 0.005928211 -0.06900747 0.057368953 -0.02478741
0.058572013 0.056396384 0.0217781 -0.03042502 -0.023765251 0.08396186 0.027680302 -0.09047634
0.048482627 -0.0040099327 -0.02413597 0.006230831 0.07622862 0.00081379776 0.05009143 0.053822655
-0.053096116 0.042762663 -0.0684398 -0.071328446 0.0074192933 0.010946361 -0.08130023 -0.03384999
0.005780831 -0.011130634 -0.06770636 -0.08986484 -0.035877336 0.06445706 -0.083406724 0.052516237
0.013507042 0.04152809 -0.065968044 0.04495569 -0.027784463 -0.07243729 0.0019743186 -0.0021394566
0.07142502 -0.073948 0.07873374 -0.019483134 0.019636367 -0.024314987 0.027910769 0.026125737
0.08705513 -0.037516132 -0.07867231 0.05173484 -0.0464088 0.03346625 -0.07230319 -0.011223959
0.016512133 -0.08559507 0.07347843 -0.06966334 -0.07706168 -0.020873364 -0.06499386 -0.007859439
0.0017106619 -0.019612726 -0.088249125 0.051077046 0.0838846 0.052997366 0.088255204 0.04119125
-0.001825422 0.05107993 -0.08208852 0.010088609 0.046570227 0.052522372 0.07843782 -0.08122688
-0.031374127 -0.005116388 -0.027026944 0.079736896 0.013036238 -0.015207615 0.08523894 0.056243718
-0.0103707835 -0.09027749 -0.06914722 -0.042434417 0.06702849 -0.09111934 -0.050875228 -0.008316506
0.05255621 0.017838642 -0.0064736903 -0.0032828723 0.09038979 -0.005700396 0.07615434 -0.036326233
0.074280046 0.053281493 0.060050573 0.0812736 -0.02522337 0.050219864 0.00061440363 -0.067572705
-0.05696103 -0.0028829116 -0.028414354 -0.06642779 0.0001784116 0.0010033101 -0.009868474 -0.014794359
0.0776271 -0.086888835 -0.04892808 0.051305324 0.022623817 -0.061248884 0.04059843 -0.07944739
0.03513816 0.033786826 -0.02886962 0.053949997 -0.030730246 -0.021309448 -0.008443566 -0.022139568
-0.04997289 -0.076790825 0.03218299 -0.05755244 0.06011513 -0.029034156 0.034253046 0.060734987
-0.058330335 0.036232367 -0.06627881 -0.031195547 -0.02159869 -0.02924662 -0.06646146 0.0034811199

fc2.bias f4 [84]
00000000: 0e58 72bc a075 723b e06e bf3c e3b8 e33c
00000010: 66d2 a4bd 2832 11bc 12fa d43c 0eae 153c
00000020: a449 193d 632b 0f3d da25 68bc c2d5 6b3d
00000030: a941 1a3c 3ebd 2fbd 4bec 723c 892c cf3b
00000040: 9075 3a3d d79f b03d 8462 9ebd 1859 e03c
00000050: 462a acbd a777 1dbd 1c1b b83c aefe 7e3d
00000060: 66a9 a93d 3e6d a73d 37e8 aebc 851e 343d
00000070: 1865 78bd 9c46 9fbc 37f7 303d 346a 03bd
00000080: ec05 aebd c9db b83d 7b98 31bd 3fc2 423d
00000090: b440 17bd d215 953c 4dc0 1ebc 47e9 48bd
000000a0: d52e 58bd 2b64 9abd cbe9 3fbd 6152 b7bd
000000b0: 5d62 85bd a1ac bdbb e502 64bd 8c56 7cbd
000000c0: 5f52 1c3d fd96 ef3a 4a5b cc3c d93f 3cbd
000000d0: f696 923d eb03 063d b39a 0a3d 9f69 11bd
000000e0: 96bb afbc 355b e83c b152 ba3d d470 b6bd
000000f0: f500 ac3d 9dcb 87bd e989 50bd 3eef 27bc
00000100: ccb0 9dbd d449 15bd 9ab3 db3a 6a72 33bd
00000110: 48e5 673c b0bb 053d 1091 c83a 7c32 8ebc
00000120: 2998 98bd e81e 07bc 37fb abbd 850a 9ebd
00000130: e0a7 d8bc 7073 a0bd a8d5 1a3d ccf6 b0bc
00000140: e088 bc3b dec1 8ebd efa7 c33c 10f7 ab3d
-0.014791502 0.003699638 0.023368299 0.027798122 -0.08047943 -0.008862056 0.025998149 0.009135736
0.037423745 0.034953486 -0.014169181 0.057576902 0.009415069 -0.042905085 0.014826844 0.0063224477
0.045522273 0.08624237 -0.07733634 0.027386233 -0.084065005 -0.038444187 0.022473864 0.0622546
0.08284263 0.08175133 -0.021350963 0.04397442 -0.060643286 -0.019442849 0.043204512 -0.032083705
-0.08497223 0.09026296 -0.043358307 0.04754853 -0.03692694 0.018198881 -0.009689403 -0.049050596
-0.052779038 -0.07538637 -0.04685382 -0.089512594 -0.06512902 -0.0057884012 -0.055666823 -0.061605975
0.038164493 0.0018279251 0.024945874 -0.045959327 0.071577 0.03271858 0.03383894 -0.03550112
-0.021451753 0.028363803 0.090978034 -0.08908239 0.0839862 -0.06630633 -0.05091277 -0.010249911
-0.07699737 -0.03644736 0.00167619 -0.043810286 0.014153786 0.032649696 0.0015302021 -0.017358057
-0.07450897 -0.008247115 -0.08397525 -0.0771685 -0.026447237 -0.07834518 0.037801415 -0.021602057
0.0057536215 -0.06970571 0.023883788 0.08396733

fc3.weight f4 [10, 84]
00000000: e87f 313d 6edc 12bd 2a16 87bd eeae 033d
00000010: b98b a9bd 1886 783c 680e 303d 7c59 063d
00000020: 5918 6abb ad42 93bd 91cc 4b3c 0bc6 4bbc
00000030: 6c8e a53d f743 0fbc 13a7 38bd 6c3a 4cbb
00000040: a8f1 8e3d b050 3abc 1e12 353d 78d6 d93d
00000050: 9f16 76bd 69db 5dbd f63c 51bd 428f c23d
00000060: b499 123d fe9f 0a3d ee54 d53d f547 723d
00000070: 1acb 703d cd42 b33d f03f 4fbd 96ef 203d
00000080: f06b 84bb 876f a0bd 7ef0 a2bd 5e86 c23c
00000090: 09cf 98bc cc54 76bd 6bdf a43d 9731 86bc
000000a0: d725 9e3d 9893 c0bd c3d9 4a3c 40b8 bbbb
000000b0: df12 d03d 72b0 83bd 0046 febc 2029 5d3c
000000c0: 5c1d c63d ca08 18bd 8212 79bd a1d8 a73d
000000d0: 3776 8cbd c120 39bd 6027 8d3b 1b57 52bd
000000e0: c2da 38bd 2887 f3bc 8e1d b93d 31f1 a1bd
000000f0: d6b3 7cbd 7de0 cbbd 926d 87bd c8f8 d1bd
00000100: d264 9dbd bfb7 93bc 8f04 a6bc d4aa d5bc
00000110: 97e4 9f3d 3351 9c3d c2d8 6bbb 3a86 a4bd
00000120: b148 4ebd 6e49 5f3d 95b4 69bd 0f0d 963d
00000130: c3b7 d33d 6abf 9cbd abb7 de3d c9a5 eabc
00000140: 37b2 8f3d d477 e13c f71e 3c3d 5889 943d
00000150: a7d9 b93d d1f7 db3b b0de bf3b d577 983c
00000160: 2a76 0a3d 9d05 903d c94a 36bd 66e0 54bd
00000170: 1c79 a2bd 076e d2bd c753 843d cf91 e93c
00000180: 1290 57bd bb51 0bbd 8e17 1dbc 1dd4 c8bc
00000190: 311c c43d b3a4 bcbd 8695 2abd b47b 8c3d
000001a0: ce39 613d 07e1 5d3d 1eee 07bd 6f9e e33b
000001b0: 09c0 94bd bc4e c53d 36f4 403c f0a4 3fbd
000001c0: b0cd f03b 646b cfbc e41b 8ebd e375 5bbd
000001d0: 94f3 fd3c 5671 623d 2058 dcbd ab86 dc3d
000001e0: 43bd bd3d 627b 5a3d c85c 72bd 915c 8ebd
000001f0: c0e0 f43a 6e37 823d 1f59 c23d 567d 7ebd
00000200: 92d3 71bd 3e49 8ebd 8984 a13d cc3e 65bd
00000210: 74fe a53d b7f6 0d3c 3e6f ad3d 40b1 43bc
00000220: e9a4 6abd 7663 d4bd 70b2 a93d 0024 07bc
00000230: 98d1 b2bd f525 b73d 339b 9cbd 6700 d8bd
00000240: a0fd d03d 4d32 98bd e0b6 d4bb c7d8 c8ba
00000250: bf2a ac3d dc12 04bd 1a0e 013d 062f 2b3d
00000260: bc08 bdbd 8df9 0a3d 89d1 eebc 9ea6 6c3d
00000270: f2db b9bd e169 50bd c6e6 89bd e651 113d
00000280: 6cd4 d4bc b04e af3b 37da 9d3d 5f56 55bd
00000290: 06fb 3ebd fe06 013d ce62 27bd f57f b9bd
000002a0: d836 843d 3c3c a2bd e665 553d 6f64 cbbd
000002b0: 9853 72bc 60d7 17bc dafb 953d b39a d8bd
000002c0: 001b 97bd dbc5 1f3b 32e9 55bc fb59 e83b
000002d0: d5d3 c33d 5529 aebd 86cb 18bc 30ab 523d
000002e0: 84f9 203d b4f1 f03c 922e b6bd ed5c b33d
000002f0: 8865 98bd f1ac 633c 9533 98bc b31d cebd
00000300: 2fd7 5b3d 6cfe a5bd 70a7 5c3d 3f52 44bc
00000310: 60ef 88bb 5fb1 89bd 908b 88bd ec42 8b3c
00000320: 694d ae3d 01dc c3bd 5dda 9bbc d627 1fbd
00000330: ffb4 b6bc d375 98bd 7c77 87bd 379b d1bd
00000340: bf5f ca3d 5298 5c3d c842 e23b 0acf afbd
00000350: fc84 debd 1326 143d 6f35 083c 554b 8ebd
00000360: 1a8f 9f3b 60a6 a3bd adee b2bd 70da 31bd
00000370: c576 fdbc 6967 553c d366 6bbc 75c0 d93d
00000380: ccac 293d b27e 8f3d 9f7a cc3d ad40 903d
00000390: 93b0 cc3d 8f10 8f3d c6a1 5a3d 1442 a2bd
000003a0: 807b 493a effe 0abd 95a0 dd3d 9c43 87bc
000003b0: 4155 163d 8cbe c83d ed4a dabd 7f1b ca3d
000003c0: 63c6 9bbd caf5 aebd 66cf 4abd f8f5 6d3c
000003d0: 572c 8bbd 8fa6 b33d 6e52 8b3d 909b cabd
000003e0: 8cbd 27bd 53c4 933d 5992 58bc 0321 963b
000003f0: 7040 74bd bc02 c73d 70a0 a4bb 34a4 b63d
0.04333487 -0.03585475 -0.06596024 0.032149248 -0.08278603 0.015168689 0.04298249 0.032800183
-0.0035720079 -0.07190452 0.012438909 -0.012437354 0.080838054 -0.008744231 -0.04508121 -0.0031162752
0.06979686 -0.011371776 0.04420673 0.1063661 -0.060080167 -0.054164324 -0.051083528 0.094999805
0.035791114 0.033843987 0.1041659 0.059150655 0.058787443 0.087529756 -0.050598085 0.039290987
-0.0040411875 -0.07833772 -0.079560265 0.023745712 -0.01865341 -0.060139462 0.08050426 -0.016381068
0.07722061 -0.09403151 0.01238102 -0.0057287514 0.101598494 -0.06430139 -0.031039238 0.0134985745
0.096735686 -0.037117757 -0.060808666 0.081956156 -0.06858485 -0.045197252 0.0043076724 -0.0513526
-0.0451305 -0.029727533 0.0903884 -0.07907332 -0.061694942 -0.09954927 -0.06612696 -0.102525294
-0.076852456 -0.018031953 -0.020265846 -0.026082434 0.07807272 0.07632675 -0.0035987352 -0.08033414
-0.050362293 0.054513387 -0.057056982 0.073267095 0.10337784 -0.07653697 0.10874876 -0.028643506
0.07016414 0.027522959 0.045927968 0.07252759 0.09074717 0.0067128916 0.005855404 0.018611828
0.033804096 0.07032321 -0.044504914 -0.051971816 -0.07933256 -0.10274892 0.06461292 0.02851191
-0.05262763 -0.03401349 -0.009588135 -0.024515206 0.095756896 -0.092111014 -0.041646503 0.06859532
0.054986767 0.05416968 -0.03318607 0.006946377 -0.0726319 0.09634158 0.011776974 -0.046788156
0.0073487386 -0.025319763 -0.069389135 -0.053579222 0.030999936 0.055283867 -0.10758996 0.107678734
0.092646144 0.053340323 -0.059170514 -0.069512494 0.0018682703 0.063582286 0.09489655 -0.06213125
-0.05903966 -0.069475636 0.07886607 -0.05596809 0.08105174 0.008664778 0.084684834 -0.011944115
-0.057286177 -0.10370533 0.082859874 -0.008248329 -0.08731383 0.089427866 -0.076467894 -0.10546952
0.10204625 -0.07431469 -0.006491527 -0.0015323394 0.08406591 -0.03224455 0.03150759 0.041792892
-0.092301816 0.033929396 -0.029152649 0.057776086 -0.09075154 -0.050882224 -0.0673347 0.035478495
-0.025980197 0.0053499565 0.07707637 -0.052084323 -0.046626113 0.03150081 -0.040865712 -0.09057609
0.06455773 -0.07921645 0.05209913 -0.099312656 -0.014790438 -0.009267658 0.073234275 -0.105763815
-0.07378197 0.0024379406 -0.013056086 0.0070908046 0.09561888 -0.08503977 -0.0093258675 0.05143279
0.039300457 0.029412128 -0.08895601 0.087579586 -0.074412405 0.013896213 -0.018579284 -0.100642584
0.053672012 -0.08105168 0.05387062 -0.0119825 -0.0041789263 -0.06723284 -0.066672444 0.016999684
0.085108586 -0.09563447 -0.019025022 -0.03885635 -0.022303103 -0.07444348 -0.06614587 -0.10234683
0.09881543 0.0538562 0.0069049336 -0.085844114 -0.108652085 0.036169123 0.008313521 -0.06947962
0.004869354 -0.07990718 -0.0873693 -0.04342121 -0.030940423 0.013025143 -0.014367777 0.106324114
0.041424558 0.07006587 0.099843256 0.07043586 0.09994616 0.0698558 0.053376935 -0.0792276
0.00076859444 -0.03393453 0.10821644 -0.01651173 0.0367024 0.09801969 -0.10658822 0.09868526
-0.07606199 -0.08542974 -0.049514197 0.014523976 -0.067955665 0.08772003 0.068028316 -0.098929524
-0.04095225 0.0721518 -0.013218486 0.004581572 -0.059631765 0.097173184 -0.0050240085 0.08918038

fc3.bias f4 [10]
00000000: 1671 e8bc 6437 a1bd a01e d83d 6610 8c3c
00000010: a7e7 9a3d 3b97 d0bb 297c 163d 729a a1bc
00000020: 3e71 7dbd 2b12 74bd
-0.028374236 -0.07871893 0.10552716 0.017097663 0.075637154 -0.0063656843 0.036739502 -0.019726966
-0.061875574 -0.05958764
